generator.pth (torch, 464286 bytes, 5 tensors)

label_emb.weight f4 [10, 10]
00000000: f6fb 633f 785a 81bd 100a 8a3f b49c 99be
00000010: ee48 73be 4787 b3be 544a 333e a903 d2bd
00000020: 246b d03d 2724 31be 4ecf 7cbf cef5 b0bf
00000030: d880 fe3e d499 b73e 7544 c6bb 2ca5 a53d
00000040: 3ed6 acbf b527 3abf fe01 e93e e42d 0dbf
00000050: 4ad6 4d3f ca06 0440 f0df 2f3f ba9f ccbe
00000060: 295b cc3f cbc4 db3f b9f1 78bf 2024 3f3f
00000070: 3ab0 263f 5a73 4fbf bb38 503e e8e8 a13e
00000080: a11c 9c3f 53c8 783f db49 62be dd0b 533f
00000090: 9160 dabd 82b3 7b3e c551 513f 49d7 a83f
000000a0: d7ab 993f 5e53 003f 9fcf 4bbf 774e 8abe
000000b0: 8809 c6bd 6b75 33bf fe28 a1bf 9378 bd3d
000000c0: 7277 06bf 234f 833e c249 9bbe 0ab5 e9be
000000d0: cdee 82bf 104d 88bf 5293 aabe 7b26 7a3e
000000e0: a47b 653e 7322 173e 2daf 4dbf 4a33 283f
000000f0: 34d8 e03e 709f eabe 412a 003e c09d 7ebd
00000100: 9360 8b3f c203 51be bb6f 9b3f 3acb e6be
00000110: 4878 6dbf 4efb 75bf 567f 31bf 9986 a6be
00000120: 6084 e33e ea9c fb3e 7e23 8d3e 489e 40bf
00000130: c37e 923f 296e 383f fe91 283f 5070 3d3e
00000140: a403 68bf 5120 54be 15b1 0dc0 7293 1440
00000150: 030b c93e cc3a a33f c7de ebbe 9a63 94bf
00000160: a591 99be bfb4 14be c27b 06c0 2181 3e3f
00000170: 8e02 06bf 123d bc3f 6a4e 54bf be95 443f
00000180: dbb4 7bbe c7fd bf3f ca94 04c0 adfe 82bf
0.89056337 -0.06316084 1.0784321 -0.30002367 -0.23758289 -0.35064146 0.17508823 -0.10254604
0.101766855 -0.17298947 -0.9875382 -1.3825014 0.49707675 0.3585955 -0.006050641 0.08088145
-1.3502882 -0.7271684 0.45509332 -0.5514815 0.80405104 2.0629144 0.68701077 -0.39965612
1.596532 1.7169431 -0.9724384 0.746645 0.6511265 -0.8103539 0.20334141 0.31623006
1.2196237 0.9718067 -0.22098486 0.82439977 -0.1066295 0.24580196 0.81765395 1.31907
1.2005566 0.5012721 -0.7961368 -0.2701299 -0.09669787 -0.7010104 -1.2590635 0.09251513
-0.5252601 0.25646314 -0.3032971 -0.45645934 -1.0229126 -1.0648518 -0.3331552 0.24428742
0.22410446 0.14759235 -0.8034542 0.6570326 0.4391495 -0.45824766 0.12516119 -0.06216216
1.0888847 -0.2041159 1.2143472 -0.45076925 -0.9276166 -0.96086586 -0.69334924 -0.32524565
0.44436932 0.49143153 0.2756614 -0.7524152 1.1444935 0.7204309 0.65847766 0.18499875
-0.90630555 -0.20715453 -2.2139332 2.3214993 0.39266214 1.2752318 -0.46068403 -1.1592896
-0.2999393 -0.14522074 -2.1013036 0.74415785 -0.5234765 1.4706137 -0.8293215 0.7679099
-0.2458071 1.4999322 -2.0715814 -1.0233971

model.0.weight f4 [128, 110]
00000000: 195a 14bd 010d 223c 2042 e2bc 33fc 41bc
00000010: 7965 55bd c287 a73c 6ffe 6d3d e5ca 233d
00000020: f503 46bc 63d8 7c3c bce0 843d c346 bebc
00000030: c5b2 0f3c 2b69 4f3d be57 74bd c463 c13c
00000040: ea24 303d 1ff4 c03c 0c10 64bd a587 bb3c
00000050: 1300 87bd a193 593c 3e21 a03d eff6 5c3c
00000060: e034 f03c 0e05 6fbc d363 31bd 10e9 2c3d
00000070: d5b9 6b3b e6a2 f0bc 0765 dd3c ca10 5a3d
00000080: d565 943d fb2b 9cbc 6be1 c1bc 4d51 2e3d
00000090: 46a0 4f3d f0e9 9d3c 4195 003d de4d 233d
000000a0: fdd5 2abd eccb 32bd 3bd5 373d f5eb 2a3d
000000b0: 5582 7dbc 4147 45bb ed17 9abd 0e84 073d
000000c0: 5166 d23c b352 5b3b c37e 303d e717 2a3d
000000d0: c32a c2bd 6eab 013d 21e1 8ebb 8a38 f63c
000000e0: c7ce 553c 6175 5f3a 1a84 a13d 76fb 0cb9
000000f0: a236 c03c b65f c83c c7b6 a63c b49d 2fbd
00000100: faae e93c 0342 5cbd c4e8 163c 34e9 80bc
00000110: 4602 3c3d 127f aabc 76c4 a73c 417e 2fbd
00000120: 4ead 6abd 3580 51bd b201 80bc ff33 323d
00000130: 57cb 14bd 1813 5f3d 90d8 aebc 7c0b 14bd
00000140: 80c4 1a3d 832f 68bd a3ca 603d a12b 83ba
00000150: a275 11bd d4fd 423d 8cf2 9b3c d172 ac3c
00000160: 0b80 bb39 f77d cfbc 4170 d33b 3542 aeba
00000170: beef a7bd 88a1 103c d851 343d b7fe 99bd
00000180: 8335 a2bd 32c0 4c3d ffce cabc 9268 21ba
00000190: 5ef3 643d 97d1 e8bd 0961 c2bb f875 cbba
000001a0: 9248 833d e350 2cbe 5d26 3d3d 74cd ed3a
000001b0: 517a 7e3d ad34 243d cd82 673c 2059 853c
000001c0: 1b04 5d3d 975d 5b3c c8db cf3b 82d7 e53c
000001d0: 54a8 4d3b 3831 4bbc 6715 a6bc b0a8 0a3c
000001e0: 184b 22bd cc12 17bd 4af5 1d3d 50fe ee3b
000001f0: 8ef7 b33b 4a5a fe3c bdf3 1f3d 578c a739
00000200: 137d 593c f2f6 013c 996e 6539 9e97 f6bb
00000210: b44d 5b3c b61f 053d 72bd 8e3b 5618 2ebd
00000220: ae6e 42bd 7088 313d 22ce 07bc 0025 263d
00000230: d692 f4bc 2585 0dbd ab1f 9bbc 2482 7d3d
00000240: 0786 5ebd 0990 2b3c 9faa 7b3a 0e25 243d
00000250: ec6f f1bc 87a2 473d 9def 473d 7a14 29bc
00000260: 2b52 113b 5a61 48bd 8058 4abd 5674 c13c
00000270: 4cae 2fbd 410d fabc 5b9d 4cbd 1530 693d
00000280: 6f0a 3a3d a9bc 1bbc 6939 373d fdde 79bb
00000290: b0cd 9a3c 2b65 68bc 0804 353d 3387 eb3c
000002a0: 1d87 f4bb 8fcb 923c d960 fdbc dc88 06bd
000002b0: 9b3d e3bc faf3 afbb 567e 65bd 531b f93c
000002c0: 1a9d c03c dd3c 123d 4ba0 db3c ebe0 08bc
000002d0: a849 dcbc 80ea 93bb 9534 84bd fb30 9c3a
000002e0: 99aa 3a3d f08b 803d 1e02 363c de8a 14bd
000002f0: 74ef 0b3c c61f aabb 4ec1 173d bbdc 223d
00000300: c118 123d c335 2e3d 8eee 4b3c ad53 953c
00000310: ae8c de3c 0c1d c23b a4ec a13c 143b 83bd
00000320: 65a7 5fbb a120 53bd 4252 713b 3577 42bc
00000330: 90c2 3a3d e8e9 143d afd2 9c3c 4ced df3c
00000340: 401a 923c dadf 80bc 9627 47be 4dab 90bd
00000350: 54d6 9fbd 3860 0a3e e128 49be 82b2 f33d
00000360: 2b1a eabd 6404 a93d d5b6 4cbe 509c 31be
00000370: fb1e efbb fdb3 c63b 2efa 03bc fdf7 f8bc
00000380: 2e4c 9c3d da40 34bd d716 3dbd dfe1 b13c
00000390: c335 773c d9b4 aebc 5dad f1bc 458a 123d
000003a0: 94fe 9e3c 7860 5ebd d7a2 9d3d d0b5 05bd
000003b0: b39a d43b 1a3d 73bd 8b58 d23b d107 153d
000003c0: dce9 77bd e2ad 583d 216b 30bd 0881 763c
000003d0: 9846 dabc 509f 933c 541e 893d f137 093d
000003e0: 31dd f23c edc1 a7bd 5747 53bd 492a 63bd
000003f0: 4a63 fa3c f27c bb3d a477 a5bd 3f93 843b
-0.036218736 0.009890796 -0.027619421 -0.011839914 -0.052098725 0.020450477 0.058103975 0.039988417
-0.012085904 0.01543245 0.06488177 -0.023227101 0.008770649 0.050637405 -0.05965399 0.023607142
0.043003954 0.023553906 -0.055679366 0.022891829 -0.06591811 0.013279826 0.078188404 0.013486608
0.029322088 -0.0145886075 -0.04330809 0.042214453 0.0035968919 -0.029374551 0.027025713 0.053238668
0.072459854 -0.01906394 -0.023667058 0.042558003 0.050689958 0.01927659 0.03139234 0.03986918
-0.04170798 -0.043651506 0.044881087 0.041728932 -0.015472968 -0.0030102285 -0.07524095 0.03308492
0.025683554 0.003346604 0.04308964 0.0415267 -0.094808124 0.03165763 -0.0043603336 0.030056257
0.013049788 0.0008524266 0.078865245 -0.00013445117 0.023463551 0.024459701 0.020350827 -0.042875007
0.028525818 -0.05377389 0.009210769 -0.0157362 0.045900606 -0.020812545 0.020479422 -0.042845014
-0.057294182 -0.05114766 -0.015625808 0.04350662 -0.036326732 0.05446157 -0.0213435 -0.036143765
0.037785053 -0.056685936 0.05488075 -0.0010007509 -0.035512574 0.04760535 0.019036554 0.021050842
0.0003576282 -0.02532862 0.0064525907 -0.0013294878 -0.08200024 0.008827575 0.044023365 -0.07519286
-0.07920363 0.04998798 -0.024756907 -0.0006157245 0.055896156 -0.11368101 -0.0059319776 -0.0015522828
0.06410326 -0.16827731 0.046179164 0.0018142895 0.06212837 0.040089298 0.014130306 0.01627785
0.053958993 0.013389013 0.0063433386 0.028056864 0.003138085 -0.012401871 -0.020273877 0.00846307
-0.039622396 -0.03688316 0.038564004 0.0072935 0.0054921573 0.031048913 0.039050806 0.00031957283
0.013274449 0.0079324115 0.00021880343 -0.0075253984 0.013385225 0.032500945 0.0043560797 -0.042503677
-0.047468834 0.043343008 -0.008288892 0.04056263 -0.029855173 -0.034550805 -0.018935999 0.06189169
-0.054327037 0.010471352 0.00096003147 0.0400744 -0.029472314 0.048738983 0.048812497 -0.010319823
0.002217422 -0.048920967 -0.049400806 0.023615044 -0.04289083 -0.030523898 -0.049954753 0.05693062
0.045420107 -0.009505429 0.044732485 -0.0038127296 0.018896908 -0.014184277 0.044193298 0.028750991
-0.007462396 0.01791933 -0.03092997 -0.032845363 -0.027739337 -0.0053696604 -0.056028686 0.030408537
0.023512412 0.035702575 0.026809832 -0.008354406 -0.02689059 -0.0045140386 -0.06455342 0.0011916453
0.04557285 0.06276691 0.011108903 -0.036265247 0.008540977 -0.005191776 0.037049584 0.039761286
0.03566814 0.04253174 0.012447013 0.018228376 0.02716669 0.005923873 0.01976616 -0.06407753
-0.0034126875 -0.05154479 0.003682271 -0.0118692415 0.045595706 0.036355883 0.01914343 0.027334832
0.017834783 -0.01573174 -0.19448695 -0.07063923 -0.07804552 0.13513267 -0.196445 0.11899282
-0.114307724 0.082527906 -0.1999162 -0.17344785 -0.0072973943 0.0060639367 -0.008055253 -0.030391688
0.076317176 -0.04400716 -0.04616436 0.021714149 0.015088501 -0.02132647 -0.029501611 0.035776395
0.019408502 -0.05429122 0.07697075 -0.032644093 0.006488168 -0.059384443 0.0064192466 0.036384407
-0.06052576 0.052900203 -0.043070916 0.015045412 -0.02664499 0.018020302 0.06695238 0.033500616
0.029646488 -0.08191285 -0.051581707 -0.05546025 0.030564923 0.09154691 -0.0807946 0.0040458734

model.0.bias f4 [128]
00000000: 41a9 723d 1ff1 6fbc 5d80 55bd 21de f0bd
00000010: 59d6 19be 1c38 29bc 38ee c03c f338 58bd
00000020: f3c6 8bbd cecf 25bd 8648 7bbd b02b 78bd
00000030: 2715 78bd 2e57 333d 571b c2bd 2483 dabc
00000040: 644b 44bd f326 c1bc 4854 20bd ea79 21bd
00000050: ab92 233e 381e aebc d3ca 8fbd 3d77 db3c
00000060: a515 3cbd bd76 a43c f3a9 f5bc 135d 71ba
00000070: 5916 c73c 7614 2fbd 38af 0dbd a8fb 923c
00000080: d8db 36be 1e54 15bd 25c1 f5bc 62ca 21be
00000090: 4dbf a23c e71b e6bd ba81 09bd bb27 05be
000000a0: 0268 76bd 61f5 01be edaa e3bc d6d5 cb3b
000000b0: e3ab c7bb 4d2d 183d a5bc b5bd e4e1 0abc
000000c0: 3231 763d 1a08 00be 042d 863d 125f 28be
000000d0: a0df 9bbd e987 cf3c c1a5 b7bd af2f 013d
000000e0: a3b3 c1bd 0b8b e2b9 5dc5 d3bc de6b 1dbd
000000f0: 663d 8ebd 631c f4bb 1301 ab3c fc64 6b3d
00000100: a4f1 e6bc 463d b63c 9a8b 59bd 30b2 833d
00000110: 4936 24bb 60f8 983c dc66 1dbe 041c afbd
00000120: ddbf 2a3c e427 a73d abc0 98bc 0248 d6bd
00000130: 40ee 76bd a560 5ebd dceb 593c 6983 95bd
00000140: 5d26 733d 0015 053d 2b53 2dbc af03 90bd
00000150: 2046 543d ce86 d1bd 386d cbbd 7e4b afbd
00000160: 6235 0dbd d8e7 213c 193c 213d db76 ae3c
00000170: 92bd 37bb 7bff 7d3d fced 99bc d2f4 19bd
00000180: 8d3e a9bd ccd1 8abd 13bc 323c a2c1 e1bd
00000190: 4434 41bd ab5c a9bd 81e3 14be 7b89 c4bd
000001a0: 5fb2 0abd 9b01 683d ac16 51bd 2c5c 4f3c
000001b0: a782 f6bc 1c2b 97bd ef5a e7bc 6f71 063a
000001c0: ec77 d7bc 3ba7 4fbc 7460 40bd 22dc cf3d
000001d0: 9c72 f53c d7c3 b1bd f26a afbd 61b5 98bd
000001e0: 2159 e3bb 1f1c 40bd 9f2b 153d 3a25 d0bd
000001f0: 37c4 dcbc db30 103d 90b4 e3bd 6c0b c6bd
0.059243444 -0.01464489 -0.05212437 -0.11761118 -0.15023173 -0.010328319 0.023551092 -0.052788686
-0.06825056 -0.04048138 -0.06134846 -0.06058854 -0.060567047 0.043784313 -0.09477871 -0.02667386
-0.04792346 -0.023578143 -0.039142877 -0.039422907 0.15973918 -0.021254644 -0.070211075 0.026790256
-0.04591908 0.02007615 -0.029988265 -0.00092072895 0.024302648 -0.042744122 -0.03459093 0.017942265
-0.17857301 -0.036457174 -0.029999325 -0.15799859 0.01986661 -0.11235791 -0.033570983 -0.13003437
-0.060157783 -0.12691261 -0.027791465 0.0062205596 -0.0060934885 0.037152577 -0.08873872 -0.008476708
0.06010551 -0.1250309 0.06551555 -0.16442516 -0.076110125 0.025333362 -0.08967162 0.031539615
-0.09458091 -0.00043209674 -0.025850946 -0.03843295 -0.069453046 -0.007449673 0.020874536 0.057469353
-0.028191395 0.022246014 -0.05311165 0.06430471 -0.002505677 0.018673122 -0.15371269 -0.085502654
0.01042172 0.081619054 -0.018646559 -0.10462953 -0.060285807 -0.054291386 0.013300862 -0.07300455
0.059362758 0.03249073 -0.010578911 -0.070319526 0.05182469 -0.1023079 -0.09932941 -0.08559321
-0.034474738 0.009881936 0.039363954 0.02129691 -0.0028036577 0.062011223 -0.018790238 -0.037586994
-0.08263884 -0.06778297 0.010909098 -0.11023261 -0.047168985 -0.08269628 -0.14539911 -0.09596535
-0.033861514 0.056642156 -0.051047012 0.012656253 -0.030091597 -0.07381269 -0.028241603 0.0005128597
-0.0263023 -0.012674148 -0.046966985 0.10149409 0.029961877 -0.086799316 -0.0856532 -0.0745647
-0.006938115 -0.04690182 0.036418553 -0.101633504 -0.026949031 0.035202842 -0.11118424 -0.09670147

model.2.weight f4 [784, 128]
00000000: 578e 88be a67f 5fbe 3587 27be 5576 74be
00000010: 7caf 47be 0b99 3dbe 016e 79be 5c4b 90be
00000020: 776c 86be 24e1 86be be5d a8be 4cea 7bbe
00000030: e7a0 d0bd 87d1 9cbe 326d debd f71b 37be
00000040: 33f3 03be e97c a4be 2f41 34be dc7b a4be
00000050: 00de 93be a1bf a2be e707 6cbe 3e4c 85be
00000060: 98a7 6cbe ea24 70be 2fe3 3bbe a208 96be
00000070: 2dcb 86be ff5e 70be bb6e 4abe f6f2 64be
00000080: 70a6 acbd 2af3 52be 8ef5 84be e66a 38be
00000090: fec6 2fbe 7fd1 3dbe 3ed2 7fbe b41b 8bbe
000000a0: 0273 bcbe 0cd5 a2be b29b e1bd 1861 55be
000000b0: 757d b2be beca 9fbe e6be a0be b646 9dbe
000000c0: b875 4bbe dd58 5ebe f153 c2bd 079c bebd
000000d0: dd34 a5be d15e 28be 0a86 a1be 8c81 90be
000000e0: c932 6ebe 5eeb 7dbe 354c abbe 464a 6cbe
000000f0: b956 a5be 5787 87be e84d 95be 119e c3be
00000100: 7198 b1be cc8a 98be fe1c 71be 6026 6bbe
00000110: a81f 81be 8368 ffbd 6f13 99be 6e7d 7fbe
00000120: 1730 9abe 96b4 6ebe 685c afbd 8426 09be
00000130: cfcf 92be 8950 5fbe 0b1b 48be e5a2 5ebe
00000140: 0de3 7bbe 0e57 9cbe 51be 96be c9f0 6fbe
00000150: c932 80be 572d 87be 8d97 4abe ce88 e2bd
00000160: a004 4fbe 25ef 98be fbdb 32be 7273 27be
00000170: 64e5 93be b8db 62be 9646 62be 0a88 55be
00000180: 0409 57bd 9f03 35be ff35 52be afa8 9dbe
00000190: afdc 31be 8004 3fbe c5c8 89be 3710 38be
000001a0: 26e9 95be a780 92be 1377 0abe 4acc 84be
000001b0: 955d 66be 1401 6fbe 7484 81be 9bbc 4bbe
000001c0: 60f3 78be 0883 7abe 6d50 54be 326f 94be
000001d0: 1559 5cbe ae36 59be bfdb 93be 3c40 7dbe
000001e0: a12b 85be 3a4c a6be 945a 72be 7b73 43be
000001f0: 6bee 7abe 18d3 b6bd bb76 5cbe f657 1abe
00000200: e79c cebe 139c 81be afa0 8cbe c6de 2ebd
00000210: 2983 7dbe a29b 65be 9643 b0be 7fba 87be
00000220: f3bd 9cbe 6178 8cbe 47f2 adbe 47ee 9abe
00000230: d340 3abe 2379 70be 9a57 4cbe fe31 95be
00000240: 27ae 71bd bd6d 8fbe 756c b5be 31f2 abbe
00000250: 4ac9 c7be 934e b7be 14fd 1abe 82c5 abbe
00000260: c867 8ebe 08f9 c7be 4110 8abe 6d13 5bbe
00000270: 88ff 63be ce67 99be 6d51 15be a966 7ebd
00000280: 3019 a5bd f768 49be 798d a0be 7e8c a5be
00000290: f5b0 81be 7e16 94be efd9 95be 50d4 39be
000002a0: 1853 2cbe 034f 6ebe cf6a 61be 1fb8 90be
000002b0: b5e6 29be 5806 babe c4cf a2be b6e7 a7be
000002c0: 0d9b 79be 9db9 91be 6338 28be ab39 72be
000002d0: 5283 58be 3eda 8abe bb73 45be 02e2 7fbe
000002e0: b646 2fbe 543e b7be 6357 96be 43ed 6abe
000002f0: 75f8 85be 0423 76be 2839 8cbe 6379 6bbe
00000300: bfcd 70be 9b05 bcbe ae40 05be 455f 72be
00000310: dd3f 77be 3880 95be fa03 bebe 4fac 47be
00000320: 0c66 bfbe d58b 88be ccc9 73be 1318 7cbe
00000330: c40c 8fbe 0a33 15be c663 87be b756 a7be
00000340: dbb6 9bbe b15d 65be 3dc3 b1be 1a23 11be
00000350: 539b 8ebe ff9f b2be 272f 5bbe ba24 70be
00000360: f855 95be 2d88 89be 4c7f 77be e385 bbbe
00000370: ac83 aebe 7999 84be 7ed1 3dbe 6771 53be
00000380: 48e9 a3bd 4d05 7cbe 7027 60be 407e b0be
00000390: 40ad bebe a1a6 5cbe fdd6 85be fbb9 d1bd
000003a0: 7546 67be 94e0 8dbe 04cf 38be 4a62 95be
000003b0: 4ca2 25be a898 34be d724 48be e12c 48be
000003c0: de43 6fbe 15e1 95be ef13 91be b590 83be
000003d0: 05c6 a4be 7db9 8bbe 0675 8bbe 0ff1 66be
000003e0: 2f34 80be 25b5 87be fdd7 71be a893 25be
000003f0: 6e45 b3be 35ee 9bbe 20df 60be af20 87be
-0.26671097 -0.21826038 -0.16360171 -0.23873265 -0.19500536 -0.18515413 -0.2435837 -0.28182495
-0.26254627 -0.26343644 -0.3288402 -0.24601096 -0.1018694 -0.30628607 -0.10860671 -0.17881761
-0.12885742 -0.3212655 -0.1760299 -0.32125747 -0.2888031 -0.31786826 -0.2304989 -0.2603473
-0.23110807 -0.23451582 -0.18348382 -0.2930346 -0.26326886 -0.23473738 -0.19768803 -0.22358307
-0.08430183 -0.20600572 -0.25968593 -0.18009529 -0.17165753 -0.18536948 -0.24982545 -0.27169573
-0.36806494 -0.31803167 -0.11016025 -0.2083782 -0.3486134 -0.31209368 -0.31395644 -0.3071801
-0.19869125 -0.21713586 -0.09488667 -0.093071036 -0.32266894 -0.1644242 -0.31547576 -0.28223836
-0.2326156 -0.24796817 -0.3345658 -0.23075208 -0.32292727 -0.26470444 -0.29161 -0.38206533
-0.34686616 -0.29793394 -0.23546216 -0.22963858 -0.25219464 -0.12471106 -0.2989764 -0.24950191
-0.30114815 -0.23311076 -0.08562547 -0.13393599 -0.2867417 -0.21808065 -0.19541566 -0.21741827
-0.24598332 -0.30535167 -0.29442075 -0.23431696 -0.25038746 -0.2640178 -0.19784375 -0.1106125
-0.20216608 -0.29869953 -0.17466728 -0.16352633 -0.2888595 -0.22154129 -0.22097239 -0.20852676
-0.052498832 -0.17677163 -0.2052841 -0.30792758 -0.1736934 -0.1865406 -0.26910987 -0.17974935
-0.2927944 -0.2861378 -0.13521986 -0.2593711 -0.22496636 -0.23340255 -0.25296366 -0.19896166
-0.2431159 -0.24464047 -0.20733805 -0.28991085 -0.21518357 -0.21212265 -0.2887859 -0.24731535
-0.2600985 -0.3248003 -0.23667365 -0.19087021 -0.24505012 -0.08926982 -0.21529667 -0.15072617
-0.40354082 -0.25314388 -0.27466342 -0.042692922 -0.24757065 -0.2242265 -0.34426564 -0.26509473
-0.3061367 -0.27435592 -0.33973905 -0.30259916 -0.18188791 -0.2348371 -0.19955292 -0.29139704
-0.059003975 -0.2801341 -0.3543431 -0.33583215 -0.3902076 -0.35802135 -0.15135604 -0.33549124
-0.27813554 -0.39057183 -0.26965526 -0.21394129 -0.22265446 -0.2996201 -0.14581843 -0.062109623
-0.08061445 -0.19668947 -0.31357935 -0.3233375 -0.2533032 -0.2892341 -0.29267833 -0.18147397
-0.16828573 -0.23272328 -0.220134 -0.28265473 -0.16591914 -0.36332965 -0.31799138 -0.3279397
-0.24375553 -0.28461924 -0.1642776 -0.23654811 -0.21143845 -0.2711963 -0.19282429 -0.24988559
-0.17116818 -0.3578974 -0.29363546 -0.2294207 -0.2616612 -0.24036795 -0.27387357 -0.22995524
-0.23515986 -0.36723027 -0.13012955 -0.23669155 -0.24145456 -0.29199386 -0.3711241 -0.19499324
-0.37382543 -0.26669183 -0.23807448 -0.24618559 -0.27939427 -0.14570251 -0.2644331 -0.32683346
-0.30412945 -0.22399022 -0.34719267 -0.14173546 -0.27852878 -0.34887692 -0.21404706 -0.2345151
-0.2916715 -0.26861706 -0.24169654 -0.36625585 -0.34084833 -0.2589834 -0.18536946 -0.20648728
-0.08003479 -0.24611397 -0.21890044 -0.3447132 -0.37241554 -0.21547939 -0.26140586 -0.10240551
-0.22585471 -0.27710402 -0.1804772 -0.2917655 -0.16175193 -0.17636359 -0.19545303 -0.1954837
-0.23365733 -0.29273286 -0.2833552 -0.2569634 -0.32182327 -0.27289954 -0.2723772 -0.22552894
-0.25039813 -0.2650539 -0.23617549 -0.16169608 -0.35013908 -0.30455175 -0.21960115 -0.26392123

model.2.bias f4 [784]
00000000: c82b a8be cb9c c3be 231d 81be b43b 65be
00000010: 61a1 86be f18d 96be 5e2d 8cbe eaa1 8cbe
00000020: 98ea 8fbe f0a5 90be ad06 97be f11c bfbe
00000030: 7c58 94be 1c56 a7be e767 85be 6e7c a4be
00000040: 8a7f a3be ddda 67be b383 73be e657 cabe
00000050: dd64 a4be 6c40 a7be a7f7 81be 62a6 c0be
00000060: 57ee 97be 649b c6be 68cf 79be d4e0 80be
00000070: d29c c0be c110 7bbe 8fcc 9abe 22d5 96be
00000080: 4b86 dabe f91b 8ebe b261 96be 6e6b 86be
00000090: 6e81 9bbe 940b 7abe dbe3 85be c880 efbd
000000a0: e91b 69be 70e8 90be 0c7f 68be 5864 31be
000000b0: a60e 45be 2ea7 1fbe 3828 c6be 1de0 2bbe
000000c0: 904c adbe bed1 6cbe 1f17 78be 0045 9fbe
000000d0: c8c7 b2be dd99 97be 841e 9dbe f6c0 b6be
000000e0: 0ac2 a0be 5080 95be 9b16 b7be 77d6 c0be
000000f0: 121d 9bbe d6bc a1be 44b4 94be 41bb bcbd
00000100: 489b 74be 43cc 0abe 77db 8ebe c59c 1abe
00000110: 0b72 26be 9c17 04be 29a4 0ebe 0d94 c2bd
00000120: 51c0 57be aadf 49be fbb2 bfbd d85f 7dbe
00000130: 5ca7 7abe de3c 94be 3082 1dbe 29f3 5abe
00000140: 5ee2 9bbe 8a82 7bbe 42d5 b7be 8cb9 cdbe
00000150: 0a71 70be 22a9 76be f080 d2be a8d2 8abe
00000160: 167b 84be 460a adbe 153f 59be c226 22be
00000170: 3cd0 5bbe 5883 5dbe f550 d8bd c3cd 05be
00000180: f0bf 4cbe cdbe 11be e8ac a3bd ac5f cdbd
00000190: 40f5 65be 0ed0 4bbd 5040 4abe bdac 17be
000001a0: 2f37 0bbe e5f1 69be da70 71be b8b0 32be
000001b0: 7f9e a1be 6739 a7be b9dc 89be d0d4 8bbe
000001c0: bdfe a2be 1d8b 96be 8535 c9be 16e6 91be
000001d0: 9061 85be 4cfb 76be ab5f e8bd 64f3 44be
000001e0: 357a bfbd 8f6f 36be e197 2fbe 0947 b6bc
000001f0: 4246 e4bd d381 bfbd 2975 e4bd b876 eabb
00000200: 1957 cabb 30ff 0dbe 65c5 293d 7d55 edbc
00000210: 6602 21be 6a49 8dbd 51ef c0bd 0352 41be
00000220: fcc0 86be a4a7 6dbe 8429 99be 1a22 6dbe
00000230: 4397 c8be c634 a2be a38e 9abe 5795 58be
00000240: 2b8a 0abe 3154 2fbe 2df4 78be 9da0 6cbe
00000250: 8005 44bd f43f eebd 207d acbc c395 0abe
00000260: 7a4e bdbc 87ee 07bd 2965 1dbb 84ca 76bd
00000270: 80ae 07bc 3368 f7bc cd05 7bbd 2d24 16be
00000280: 8cee b0bd 5b8a a4bd 43bf 22be 6135 2ebe
00000290: 2e49 11be ef01 25be 5f0c 49be a304 9bbe
000002a0: 8815 9abe 5f7f 87be 5d61 bfbe 4f2f 9dbe
000002b0: 59f1 6cbe b1bb d4bd eefd e0bd a77d 37be
000002c0: 3c9d f6bd 4987 5dbd c537 883c 81c5 913d
000002d0: 1c69 34bc 355e 8dbd fb87 f9bb 5c15 19bc
000002e0: 44f3 673c c5f3 723b 3245 d0bd 72d7 98bd
000002f0: eb39 f1bd 0e66 12bd 4c7f 8dbd f69d 6cbe
00000300: 17ba 0fbe adbd 39be fcbd 74be bb0c a7be
00000310: d889 8bbe 70f7 5ebe 0b34 9bbe a24d 54be
00000320: db78 1bbe 2065 debd bb94 2fbe 7d12 e9bd
00000330: a60c c6bd 1e63 47bd c306 c13b d092 a5bc
00000340: bbdd 29bb 8b9d 2ebd 6636 f83c 0950 ebbc
00000350: 7b13 52bc b807 c43d 6b5a 683d cdc9 fdbc
00000360: 2d64 5ebd 90aa d8bd dd64 6ebd 1b64 06be
00000370: 3b13 5ebd b4f2 62be 0895 8ebe 6f63 6fbe
00000380: 729c 7dbe 3215 b4be 6f10 a4be 7dfd 1fbe
00000390: d675 d9bd 5515 0fbe 9b93 5dbe 0d3a aebd
000003a0: d327 88bb a434 afbd ca09 893d eb36 8f3c
000003b0: 4936 b93c 2347 6c3c daff 9bbc 5a31 dfbc
000003c0: bf9d 10bd 24e6 473c f4a9 b83c a578 89bc
000003d0: f208 bfbd 67c4 80bc e98f fdbd 1933 1fbe
000003e0: 152d 13be 8461 6ebe 6567 60be 5277 48be
000003f0: 6068 8fbe cb08 06be 939d 99be e235 86be
-0.32845902 -0.3820556 -0.25217542 -0.22386056 -0.26294997 -0.29405168 -0.27378362 -0.2746728
-0.28108668 -0.282516 -0.2949728 -0.37326768 -0.28973758 -0.32682884 -0.26055834 -0.32126182
-0.31933242 -0.22642083 -0.23780708 -0.39520186 -0.32108203 -0.32666337 -0.25384256 -0.3762694
-0.29674026 -0.3879043 -0.24395525 -0.2517153 -0.37619644 -0.2451811 -0.3023419 -0.29459482
-0.42680582 -0.27755716 -0.2937141 -0.26253837 -0.30372185 -0.24418479 -0.26150402 -0.11694485
-0.22764553 -0.28302336 -0.22704715 -0.17323434 -0.19243869 -0.15591118 -0.3870256 -0.16784711
-0.33847475 -0.23126885 -0.2422757 -0.3110733 -0.34918046 -0.29609576 -0.30687344 -0.35694093
-0.3139804 -0.29199457 -0.35759434 -0.37663624 -0.30295616 -0.31589383 -0.29043782 -0.09215403
-0.2388736 -0.13554482 -0.27901813 -0.15098865 -0.16254441 -0.12899631 -0.1392981 -0.09500895
-0.21069457 -0.19714227 -0.0936031 -0.24743593 -0.24477905 -0.28952688 -0.15381694 -0.2138182
-0.30446142 -0.24561515 -0.3590489 -0.40180624 -0.23480621 -0.24087957 -0.41113997 -0.27113843
-0.25875157 -0.337969 -0.2121547 -0.15835097 -0.21466154 -0.21632135 -0.10562316 -0.13066773
-0.19995093 -0.14232941 -0.079919636 -0.100280136 -0.22456837 -0.049758963 -0.19751096 -0.14811988
-0.1359527 -0.22846182 -0.23578206 -0.17450225 -0.31566235 -0.32660982 -0.2692621 -0.273108
-0.31834975 -0.2940301 -0.39298645 -0.28495854 -0.26050997 -0.241193 -0.11346372 -0.19233471
-0.09349481 -0.17815994 -0.17147781 -0.02225067 -0.11146213 -0.09350934 -0.11155159 -0.0071552657
-0.0061749336 -0.13866878 0.041448016 -0.028971428 -0.15723571 -0.06898768 -0.09420646 -0.18878941
-0.2631911 -0.23208481 -0.29914486 -0.2315754 -0.39177904 -0.31680888 -0.30186948 -0.21150719
-0.1352927 -0.1712196 -0.24311896 -0.23108144 -0.047856808 -0.11633292 -0.021055758 -0.13533692
-0.02310871 -0.03318646 -0.0024016595 -0.060251728 -0.00828135 -0.030201053 -0.06128483 -0.14662237
-0.08639249 -0.08034202 -0.15893273 -0.1701255 -0.14188072 -0.16114019 -0.19633625 -0.30276975
-0.30094552 -0.26464364 -0.3737897 -0.30700156 -0.23138942 -0.10387362 -0.10985933 -0.17919026
-0.12041709 -0.054084096 0.016628155 0.07117749 -0.011011388 -0.06902734 -0.007615087 -0.009343471
0.01415712 0.0037071567 -0.10169448 -0.07462968 -0.11778625 -0.03574186 -0.069090456 -0.23107132
-0.14035831 -0.18138762 -0.23900598 -0.326269 -0.27253604 -0.21774077 -0.30313143 -0.2073274
-0.15182821 -0.10859132 -0.1714658 -0.113804795 -0.09670381 -0.04867851 0.0058906986 -0.020211607
-0.0025919515 -0.042630713 0.030299377 -0.028724687 -0.012822027 0.09571785 0.056726854 -0.030980015
-0.054294754 -0.10579407 -0.05820166 -0.13124125 -0.05421756 -0.22162896 -0.27848077 -0.23377775
-0.2476671 -0.3517242 -0.32043788 -0.15624042 -0.106181785 -0.13972981 -0.21638338 -0.08507166
-0.004155138 -0.08554962 0.0669132 0.017482242 0.022608893 0.014421257 -0.019042898 -0.027245212
-0.03530669 0.012200866 0.022541977 -0.01678116 -0.09327878 -0.015718652 -0.12380964 -0.15546836
-0.14372666 -0.23279387 -0.21914442 -0.19576767 -0.2800932 -0.13089292 -0.30003032 -0.26212984
